…
es=50, weight_decay=0.0)
2023-05-09 16:34:17 | INFO | /g/kosinski/geoffrey/unifold_review/unifold_classification/Uni-Fold/unifold/dataset.py | load 14 chains (unique 14 sequences)
2023-05-09 16:34:17 | INFO | torch.distributed.distributed_c10d | Added key: store_based_barrier_key:2 to store for rank: 0
2023-05-09 16:34:17 | INFO | torch.distributed.distributed_c10d | Rank 0: Completed store-based barrier for key:store_based_barrier_key:2 with 1 nodes.
2023-05-09 16:34:17 | INFO | unicore_cli.train | AlphafoldModel(
  (model): AlphaFold(
    (input_embedder): InputEmbedder(
      (linear_tf_z_i): Linear(in_features=21, out_features=128, bias=True)
      (linear_tf_z_j): Linear(in_features=21, out_features=128, bias=True)
      (linear_tf_m): Linear(in_features=21, out_features=256, bias=True)
      (linear_msa_m): Linear(in_features=49, out_features=256, bias=True)
      (linear_relpos): Linear(in_features=73, out_features=128, bias=True)
    )
    (recycling_embedder): RecyclingEmbedder(
      (linear): Linear(in_features=15, out_features=128, bias=True)
      (layer_norm_m): LayerNorm(torch.Size([256]), eps=1e-05, elementwise_affine=True)
      (layer_norm_z): LayerNorm(torch.Size([128]), eps=1e-05, elementwise_affine=True)
    )
    (template_angle_embedder): TemplateAngleEmbedder(
      (linear_1): Linear(in_features=34, out_features=256, bias=True)
      (act): ReLU()
      (linear_2): Linear(in_features=256, out_features=256, bias=True)
    )
    (template_pair_embedder): TemplatePairEmbedder(
      (linear): 8 X ...
      Linear(in_features=39, out_features=64, bias=True)
      (z_layer_norm): LayerNorm(torch.Size([128]), eps=1e-05, elementwise_affine=True)
      (z_linear): Linear(in_features=128, out_features=64, bias=True)
    )
    (template_pair_stack): TemplatePairStack(
      (blocks): 2 X ...
      TemplatePairStackBlock(
        (tri_att_start): TriangleAttentionStarting(
          (layer_norm): LayerNorm(torch.Size([64]), eps=1e-05, elementwise_affine=True)
          (linear): Linear(in_features=64, out_features=4, bias=False)
          (mha): Attention(
            (linear_q): Linear(in_features=64, out_features=64, bias=False)
            (linear_k): Linear(in_features=64, out_features=64, bias=False)
            (linear_v): Linear(in_features=64, out_features=64, bias=False)
            (linear_o): Linear(in_features=64, out_features=64, bias=True)
            (linear_g): Linear(in_features=64, out_features=64, bias=True)
          )
        )
        (tri_att_end): TriangleAttentionEnding(
          (layer_norm): LayerNorm(torch.Size([64]), eps=1e-05, elementwise_affine=True)
          (linear): Linear(in_features=64, out_features=4, bias=False)
          (mha): Attention(
            (linear_q): Linear(in_features=64, out_features=64, bias=False)
            (linear_k): Linear(in_features=64, out_features=64, bias=False)
            (linear_v): Linear(in_features=64, out_features=64, bias=False)
            (linear_o): Linear(in_features=64, out_features=64, bias=True)
            (linear_g): Linear(in_features=64, out_features=64, bias=True)
          )
        )
        (tri_mul_out): TriangleMultiplicationOutgoing(
          (linear_ab_p): Linear(in_features=64, out_features=128, bias=True)
          (linear_ab_g): Linear(in_features=64, out_features=128, bias=True)
          (linear_g): Linear(in_features=64, out_features=64, bias=True)
          (linear_z): Linear(in_features=64, out_features=64, bias=True)
          (layer_norm_in): LayerNorm(torch.Size([64]), eps=1e-05, elementwise_affine=True)
          (layer_norm_out): LayerNorm(torch.Size([64]), eps=1e-05, elementwise_affine=True)
        )
        (tri_mul_in): TriangleMultiplicationIncoming(
          (linear_ab_p): Linear(in_features=64, out_features=128, bias=True)
          (linear_ab_g): Linear(in_features=64, out_features=128, bias=True)
          (linear_g): Linear(in_features=64, out_features=64, bias=True)
          (linear_z): Linear(in_features=64, out_features=64, bias=True)
          (layer_norm_in): LayerNorm(torch.Size([64]), eps=1e-05, elementwise_affine=True)
          (layer_norm_out): LayerNorm(torch.Size([64]), eps=1e-05, elementwise_affine=True)
        )
        (pair_transition): Transition(
          (layer_norm): LayerNorm(torch.Size([64]), eps=1e-05, elementwise_affine=True)
          (linear_1): Linear(in_features=64, out_features=128, bias=True)
          (act): ReLU()
          (linear_2): Linear(in_features=128, out_features=64, bias=True)
        )
      )
      (layer_norm): LayerNorm(torch.Size([64]), eps=1e-05, elementwise_affine=True)
    )
    (template_proj): TemplateProjection(
      (act): ReLU()
      (output_linear): Linear(in_features=64, out_features=128, bias=True)
    )
    (extra_msa_embedder): ExtraMSAEmbedder(
      (linear): Linear(in_features=25, out_features=64, bias=True)
    )
    (extra_msa_stack): ExtraMSAStack(
      (blocks): 4 X ...
      EvoformerIteration(
        (msa_att_row): MSARowAttentionWithPairBias(
          (layer_norm_m): LayerNorm(torch.Size([64]), eps=1e-05, elementwise_affine=True)
          (layer_norm_z): LayerNorm(torch.Size([128]), eps=1e-05, elementwise_affine=True)
          (linear_z): Linear(in_features=128, out_features=8, bias=False)
          (mha): Attention(
            (linear_q): Linear(in_features=64, out_features=64, bias=False)
            (linear_k): Linear(in_features=64, out_features=64, bias=False)
            (linear_v): Linear(in_features=64, out_features=64, bias=False)
            (linear_o): Linear(in_features=64, out_features=64, bias=True)
            (linear_g): Linear(in_features=64, out_features=64, bias=True)
          )
        )
        (msa_att_col): MSAColumnGlobalAttention(
          (layer_norm_m): LayerNorm(torch.Size([64]), eps=1e-05, elementwise_affine=True)
          (global_attention): GlobalAttention(
            (linear_q): Linear(in_features=64, out_features=64, bias=False)
            (linear_k): Linear(in_features=64, out_features=8, bias=False)
            (linear_v): Linear(in_features=64, out_features=8, bias=False)
            (linear_g): Linear(in_features=64, out_features=64, bias=True)
            (linear_o): Linear(in_features=64, out_features=64, bias=True)
            (sigmoid): Sigmoid()
          )
        )
        (msa_transition): Transition(
          (layer_norm): LayerNorm(torch.Size([64]), eps=1e-05, elementwise_affine=True)
          (linear_1): Linear(in_features=64, out_features=256, bias=True)
          (act): ReLU()
          (linear_2): Linear(in_features=256, out_features=64, bias=True)
        )
        (outer_product_mean): OuterProductMean(
          (layer_norm): LayerNorm(torch.Size([64]), eps=1e-05, elementwise_affine=True)
          (linear_1): Linear(in_features=64, out_features=32, bias=True)
          (linear_2): Linear(in_features=64, out_features=32, bias=True)
          (linear_out): Linear(in_features=1024, out_features=128, bias=True)
          (act): ReLU()
          (linear_z): None
          (layer_norm_out): None
        )
        (tri_mul_out): TriangleMultiplicationOutgoing(
          (linear_ab_p): Linear(in_features=128, out_features=256, bias=True)
          (linear_ab_g): Linear(in_features=128, out_features=256, bias=True)
          (linear_g): Linear(in_features=128, out_features=128, bias=True)
          (linear_z): Linear(in_features=128, out_features=128, bias=True)
          (layer_norm_in): LayerNorm(torch.Size([128]), eps=1e-05, elementwise_affine=True)
          (layer_norm_out): LayerNorm(torch.Size([128]), eps=1e-05, elementwise_affine=True)
        )
        (tri_mul_in): TriangleMultiplicationIncoming(
          (linear_ab_p): Linear(in_features=128, out_features=256, bias=True)
          (linear_ab_g): Linear(in_features=128, out_features=256, bias=True)
          (linear_g): Linear(in_features=128, out_features=128, bias=True)
          (linear_z): Linear(in_features=128, out_features=128, bias=True)
          (layer_norm_in): LayerNorm(torch.Size([128]), eps=1e-05, elementwise_affine=True)
          (layer_norm_out): LayerNorm(torch.Size([128]), eps=1e-05, elementwise_affine=True)
        )
        (tri_att_start): TriangleAttentionStarting(
          (layer_norm): LayerNorm(torch.Size([128]), eps=1e-05, elementwise_affine=True)
          (linear): Linear(in_features=128, out_features=4, bias=False)
          (mha): Attention(
            (linear_q): Linear(in_features=128, out_features=128, bias=False)
            (linear_k): Linear(in_features=128, out_features=128, bias=False)
            (linear_v): Linear(in_features=128, out_features=128, bias=False)
            (linear_o): Linear(in_features=128, out_features=128, bias=True)
            (linear_g): Linear(in_features=128, out_features=128, bias=True)
          )
        )
        (tri_att_end): TriangleAttentionEnding(
          (layer_norm): LayerNorm(torch.Size([128]), eps=1e-05, elementwise_affine=True)
          (linear): Linear(in_features=128, out_features=4, bias=False)
          (mha): Attention(
            (linear_q): Linear(in_features=128, out_features=128, bias=False)
            (linear_k): Linear(in_features=128, out_features=128, bias=False)
            (linear_v): Linear(in_features=128, out_features=128, bias=False)
            (linear_o): Linear(in_features=128, out_features=128, bias=True)
            (linear_g): Linear(in_features=128, out_features=128, bias=True)
          )
        )
        (pair_transition): Transition(
          (layer_norm): LayerNorm(torch.Size([128]), eps=1e-05, elementwise_affine=True)
          (linear_1): Linear(in_features=128, out_features=512, bias=True)
          (act): ReLU()
          (linear_2): Linear(in_features=512, out_features=128, bias=True)
        )
      )
    )
    (evoformer): EvoformerStack(
      (blocks): 48 X ...
      EvoformerIteration(
        (msa_att_row): MSARowAttentionWithPairBias(
          (layer_norm_m): LayerNorm(torch.Size([256]), eps=1e-05, elementwise_affine=True)
          (layer_norm_z): LayerNorm(torch.Size([128]), eps=1e-05, elementwise_affine=True)
          (linear_z): Linear(in_features=128, out_features=8, bias=False)
          (mha): Attention(
            (linear_q): Linear(in_features=256, out_features=256, bias=False)
            (linear_k): Linear(in_features=256, out_features=256, bias=False)
            (linear_v): Linear(in_features=256, out_features=256, bias=False)
            (linear_o): Linear(in_features=256, out_features=256, bias=True)
            (linear_g): Linear(in_features=256, out_features=256, bias=True)
          )
        )
        (msa_att_col): MSAColumnAttention(
          (layer_norm_m): LayerNorm(torch.Size([256]), eps=1e-05, elementwise_affine=True)
          (mha): Attention(
            (linear_q): Linear(in_features=256, out_features=256, bias=False)
            (linear_k): Linear(in_features=256, out_features=256, bias=False)
            (linear_v): Linear(in_features=256, out_features=256, bias=False)
            (linear_o): Linear(in_features=256, out_features=256, bias=True)
            (linear_g): Linear(in_features=256, out_features=256, bias=True)
          )
        )
        (msa_transition): Transition(
          (layer_norm): LayerNorm(torch.Size([256]), eps=1e-05, elementwise_affine=True)
          (linear_1): Linear(in_features=256, out_features=1024, bias=True)
          (act): ReLU()
          (linear_2): Linear(in_features=1024, out_features=256, bias=True)
        )
        (outer_product_mean): OuterProductMean(
          (layer_norm): LayerNorm(torch.Size([256]), eps=1e-05, elementwise_affine=True)
          (linear_1): Linear(in_features=256, out_features=32, bias=True)
          (linear_2): Linear(in_features=256, out_features=32, bias=True)
          (linear_out): Linear(in_features=1024, out_features=128, bias=True)
          (act): ReLU()
          (linear_z): None
          (layer_norm_out): None
        )
        (tri_mul_out): TriangleMultiplicationOutgoing(
          (linear_ab_p): Linear(in_features=128, out_features=256, bias=True)
          (linear_ab_g): Linear(in_features=128, out_features=256, bias=True)
          (linear_g): Linear(in_features=128, out_features=128, bias=True)
          (linear_z): Linear(in_features=128, out_features=128, bias=True)
          (layer_norm_in): LayerNorm(torch.Size([128]), eps=1e-05, elementwise_affine=True)
          (layer_norm_out): LayerNorm(torch.Size([128]), eps=1e-05, elementwise_affine=True)
        )
        (tri_mul_in): TriangleMultiplicationIncoming(
          (linear_ab_p): Linear(in_features=128, out_features=256, bias=True)
          (linear_ab_g): Linear(in_features=128, out_features=256, bias=True)
          (linear_g): Linear(in_features=128, out_features=128, bias=True)
          (linear_z): Linear(in_features=128, out_features=128, bias=True)
          (layer_norm_in): LayerNorm(torch.Size([128]), eps=1e-05, elementwise_affine=True)
          (layer_norm_out): LayerNorm(torch.Size([128]), eps=1e-05, elementwise_affine=True)
        )
        (tri_att_start): TriangleAttentionStarting(
          (layer_norm): LayerNorm(torch.Size([128]), eps=1e-05, elementwise_affine=True)
          (linear): Linear(in_features=128, out_features=4, bias=False)
          (mha): Attention(
            (linear_q): Linear(in_features=128, out_features=128, bias=False)
            (linear_k): Linear(in_features=128, out_features=128, bias=False)
            (linear_v): Linear(in_features=128, out_features=128, bias=False)
            (linear_o): Linear(in_features=128, out_features=128, bias=True)
            (linear_g): Linear(in_features=128, out_features=128, bias=True)
          )
        )
        (tri_att_end): TriangleAttentionEnding(
          (layer_norm): LayerNorm(torch.Size([128]), eps=1e-05, elementwise_affine=True)
          (linear): Linear(in_features=128, out_features=4, bias=False)
          (mha): Attention(
            (linear_q): Linear(in_features=128, out_features=128, bias=False)
            (linear_k): Linear(in_features=128, out_features=128, bias=False)
            (linear_v): Linear(in_features=128, out_features=128, bias=False)
            (linear_o): Linear(in_features=128, out_features=128, bias=True)
            (linear_g): Linear(in_features=128, out_features=128, bias=True)
          )
        )
        (pair_transition): Transition(
          (layer_norm): LayerNorm(torch.Size([128]), eps=1e-05, elementwise_affine=True)
          (linear_1): Linear(in_features=128, out_features=512, bias=True)
          (act): ReLU()
          (linear_2): Linear(in_features=512, out_features=128, bias=True)
        )
      )
      (linear): Linear(in_features=256, out_features=384, bias=True)
    )
    (structure_module): StructureModule(
      (layer_norm_s): LayerNorm(torch.Size([384]), eps=1e-05, elementwise_affine=True)
      (layer_norm_z): LayerNorm(torch.Size([128]), eps=1e-05, elementwise_affine=True)
      (linear_in): Linear(in_features=384, out_features=384, bias=True)
      (ipa): InvariantPointAttention(
        (linear_q): Linear(in_features=384, out_features=192, bias=False)
        (linear_k): Linear(in_features=384, out_features=192, bias=False)
        (linear_v): Linear(in_features=384, out_features=192, bias=False)
        (linear_q_points): Linear(in_features=384, out_features=144, bias=True)
        (linear_k_points): Linear(in_features=384, out_features=144, bias=True)
        (linear_v_points): Linear(in_features=384, out_features=288, bias=True)
        (linear_b): Linear(in_features=128, out_features=12, bias=True)
        (linear_out): Linear(in_features=2112, out_features=384, bias=True)
        (softplus): Softplus(beta=1, threshold=20)
      )
      (ipa_dropout): Dropout(p=0.1, inplace=False)
      (layer_norm_ipa): LayerNorm(torch.Size([384]), eps=1e-05, elementwise_affine=True)
      (transition): StructureModuleTransition(
        (layers): 1 X ...
        StructureModuleTransitionLayer(
          (linear_1): Linear(in_features=384, out_features=384, bias=True)
          (linear_2): Linear(in_features=384, out_features=384, bias=True)
          (act): ReLU()
          (linear_3): Linear(in_features=384, out_features=384, bias=True)
        )
        (dropout): Dropout(p=0.1, inplace=False)
        (layer_norm): LayerNorm(torch.Size([384]), eps=1e-05, elementwise_affine=True)
      )
      (bb_update): BackboneUpdate(
        (linear): Linear(in_features=384, out_features=6, bias=True)
      )
      (angle_resnet): SidechainAngleResnet(
        (linear_in): Linear(in_features=384, out_features=128, bias=True)
        (act): ReLU()
        (linear_initial): Linear(in_features=384, out_features=128, bias=True)
        (layers): 2 X ...
        SideChainAngleResnetIteration(
          (linear_1): Linear(in_features=128, out_features=128, bias=True)
          (act): ReLU()
          (linear_2): Linear(in_features=128, out_features=128, bias=True)
        )
        (linear_out): Linear(in_features=128, out_features=14, bias=True)
      )
    )
    (aux_heads): AuxiliaryHeads(
      (plddt): PredictedLDDTHead(
        (layer_norm): LayerNorm(torch.Size([384]), eps=1e-05, elementwise_affine=True)
        (linear_1): Linear(in_features=384, out_features=128, bias=True)
        (linear_2): Linear(in_features=128, out_features=128, bias=True)
        (act): ReLU()
        (linear_3): Linear(in_features=128, out_features=50, bias=True)
      )
      (distogram): DistogramHead(
        (layer_norm): None
        (linear_in): None
        (act): ReLU()
        (linear): Linear(in_features=128, out_features=64, bias=True)
      )
      (masked_msa): MaskedMSAHead(
        (layer_norm): None
        (linear_in): None
        (act): ReLU()
        (linear): Linear(in_features=256, out_features=22, bias=True)
      )
      (experimentally_resolved): ExperimentallyResolvedHead(
        (layer_norm): None
        (linear_in): None
        (act): ReLU()
        (linear): Linear(in_features=384, out_features=37, bias=True)
      )
      (pae): PredictedAlignedErrorHead(
        (layer_norm): None
        (linear_in): None
        (act): ReLU()
        (linear): Linear(in_features=128, out_features=64, bias=True)
      )
    )
  )
)
2023-05-09 16:34:17 | INFO | unicore_cli.train | task: AlphafoldTask
2023-05-09 16:34:17 | INFO | unicore_cli.train | model: AlphafoldModel
2023-05-09 16:34:17 | INFO | unicore_cli.train | loss: AlphafoldMultimerLoss
2023-05-09 16:34:17 | INFO | unicore_cli.train | num. model params: 93,223,705 (num. trained: 93,223,705)
2023-05-09 16:34:18 | INFO | unicore.utils | ***********************CUDA enviroments for all 1 workers***********************
…
